…
    resolved_file = hf_hub_download(
  File ""/Users/clustered/miniconda3/lib/python3.10/site-packages/huggingface_hub-0.14.1-py3.8.egg/huggingface_hub/utils/_validators.py"", line 112, in _inner_fn
  File ""/Users/clustered/miniconda3/lib/python3.10/site-packages/huggingface_hub-0.14.1-py3.8.egg/huggingface_hub/utils/_validators.py"", line 166, in validate_repo_id
huggingface_hub.utils._validators.HFValidationError: Repo id must use alphanumeric chars or '-', '_', '.', '--' and '..' are forbidden, '-' and '.' cannot start or end the name, max length is 96: 'RWForCausalLM(
  (transformer): RWModel(
    (word_embeddings): Embedding(65024, 4544)
    (h): ModuleList(
      (0-31): 32 x DecoderLayer(
        (input_layernorm): LayerNorm((4544,), eps=1e-05, elementwise_affine=True)
        (self_attention): Attention(
          (maybe_rotary): RotaryEmbedding()
          (query_key_value): Linear(in_features=4544, out_features=4672, bias=False)
          (dense): Linear(in_features=4544, out_features=4544, bias=False)
          (attention_dropout): Dropout(p=0.0, inplace=False)
        )
        (mlp): MLP(
          (dense_h_to_4h): Linear(in_features=4544, out_features=18176, bias=False)
          (act): GELU(approximate='none')
          (dense_4h_to_h): Linear(in_features=18176, out_features=4544, bias=False)
        )
      )
    )
    (ln_f): LayerNorm((4544,), eps=1e-05, elementwise_affine=True)
  )
  (lm_head): Linear(in_features=4544, out_features=65024, bias=False)"
Sasanou,2023-06-05 13:37:10+00:00,comment,tiiuae/falcon-7b-instruct,Can anyone please help 9n this ? :)
Sasanou,2023-06-07 09:11:41+00:00,comment,tiiuae/falcon-7b-instruct,Anyone?
aviadatlas,2023-06-07 11:18:35+00:00,comment,tiiuae/falcon-7b-instruct,"So I managed to make the sample code work on Colab at least. I just needed to have the GPU enabled via ""Runtime -> Change runtime type"""
…
    raise ValueError(f""Could not load model {model} with any of the following classes: {class_tuple}."")
ValueError: Could not load model ../models/falcon_7b with any of the following classes: (<class 'transformers.models.auto.modeling_auto.AutoModelForCausalLM'>,)."
demsking,2023-06-16 07:55:43+00:00,comment,tiiuae/falcon-7b,"I have similar issue even after adding:
```py
model = AutoModelForCausalLM.from_pretrained(model, trust_remote_code=True)
```
Error:
```rs
HFValidationError: Repo id must use alphanumeric chars or '-', '_', '.', '--' and '..' are forbidden, '-' and '.' cannot start or end the name, max length is
96: 'RWForCausalLM(
  (transformer): RWModel(
    (word_embeddings): Embedding(65024, 4544)
    (h): ModuleList(
      (0-31): 32 x DecoderLayer(
        (input_layernorm): LayerNorm((4544,), eps=1e-05, elementwise_affine=True)
        (self_attention): Attention(
          (maybe_rotary): RotaryEmbedding()
          (query_key_value): Linear(in_features=4544, out_features=4672, bias=False)
          (dense): Linear(in_features=4544, out_features=4544, bias=False)
          (attention_dropout): Dropout(p=0.0, inplace=False)
        )
        (mlp): MLP(
          (dense_h_to_4h): Linear(in_features=4544, out_features=18176, bias=False)
          (act): GELU(approximate='none')
          (dense_4h_to_h): Linear(in_features=18176, out_features=4544, bias=False)
        )
      )
    )
    (ln_f): LayerNorm((4544,), eps=1e-05, elementwise_affine=True)
  )
  (lm_head): Linear(in_features=4544, out_features=65024, bias=False)
)'.
```"
archonlith,2023-08-14 15:56:36+00:00,comment,tiiuae/falcon-7b,This comment has been hidden
dimaischenko,2023-06-01 10:10:59+00:00,comment,tiiuae/falcon-7b,"To add more clarity. Here is my generation cycle

```python
device = torch.device(""cuda"")
model_id = ""tiiuae/falcon-7b""

model = AutoModelForCausalLM.from_pretrained(
    model_id,
    torch_dtype=torch.bfloat16,
…
model_name = 'mosaicml/mpt-7b'

tokenizer = AutoTokenizer.from_pretrained(""EleutherAI/gpt-neox-20b"")
model = AutoModelForCausalLM.from_pretrained(
    model_name, 
    load_in_8bit=True,
    device_map=""auto"",
    trust_remote_code=True,
    revision=""pr/45""
)

prompt = ""What is the boiling point of Nitrogen?""

input_ids = tokenizer(prompt, return_tensors=""pt"").input_ids.to(0)
out = model.generate(input_ids)
print(tokenizer.decode(out[0], skip_special_tokens=True))
```"
kosiakk,2023-06-07 11:29:20+00:00,comment,mosaicml/mpt-7b,"You can print the `model`:
```
MPTForCausalLM(
  (transformer): MPTModel(
    (wte): Embedding(50432, 4096)
    (emb_drop): Dropout(p=0, inplace=False)
    (blocks): ModuleList(
      (0-31): 32 x MPTBlock(
        (norm_1): LPLayerNorm((4096,), eps=1e-05, elementwise_affine=True)
        (attn): MultiheadAttention(
          (Wqkv): Linear(in_features=4096, out_features=12288, bias=False)
          (out_proj): Linear(in_features=4096, out_features=4096, bias=False)
        )
        (norm_2): LPLayerNorm((4096,), eps=1e-05, elementwise_affine=True)
        (ffn): MPTMLP(
          (up_proj): Linear(in_features=4096, out_features=16384, bias=False)
          (act): GELU(approximate='none')
          (down_proj): Linear(in_features=16384, out_features=4096, bias=False)
        )
        (resid_attn_dropout): Dropout(p=0, inplace=False)
        (resid_ffn_dropout): Dropout(p=0, inplace=False)
      )
    )
    (norm_f): LPLayerNorm((4096,), eps=1e-05, elementwise_affine=True)
  )
)
```

It has `transformer.wte.weights` matrix, if you want a low-level access to embeddings."
winglian,2023-05-27 18:28:54+00:00,comment,mosaicml/mpt-7b,
…
